code_file(pstage_01_image_classification)/model/base/last.pth (torch, 400759 bytes, 8 tensors)

conv1.weight f4 [32, 3, 7, 7]
0	0x3d90148f	0.07035171
1	0x3d5da3b8	0.054111212
2	0xbd3f19da	-0.046655513
3	0xbcf3a6f6	-0.0297427
4	0xbbfc6f47	-0.007703695
5	0xbb952844	-0.004551919
6	0xbd80771b	-0.062727176
7	0xbcb3828b	-0.021912834
8	0x3d804cae	0.062646255
9	0xbda366c3	-0.079785846
10	0x3c454806	0.0120410975
11	0x3c8a1a88	0.016858354
12	0xbcd69087	-0.026191963
13	0xbce499e6	-0.027905416
14	0xbd28bc7a	-0.04119537
15	0xbd99413b	-0.07483145
16	0xbd98119f	-0.07425236
17	0x3d342ee1	0.04399002
18	0xbb18da7c	-0.0023323586
19	0xbb61d92f	-0.0034461727
20	0xbc5b494b	-0.013384174
21	0xbd9f8ad1	-0.07790149
22	0xbc5b33b4	-0.013379026
23	0xbd9b9b62	-0.07597996
24	0x3d26e1dd	0.040742744
25	0xbcec2cb3	-0.028829908
26	0xbce4a0ff	-0.0279088
27	0x3ceefe19	0.029173898
28	0xbd672f8d	-0.056441832
29	0xbd5b83c7	-0.05359247
30	0xbd3b2f84	-0.04569961
31	0xbc97a182	-0.01850963
32	0xbd550c1a	-0.052013494
33	0xbda815f4	-0.08207312
34	0x3d1778a8	0.0369803
35	0x3d37f886	0.044914745
36	0xbd0b1e82	-0.03396464
37	0xbd81bbac	-0.06334624
38	0x3d64fd02	0.05590535
39	0xbd4ccbb0	-0.04999894
40	0xbd82d3d2	-0.06388058
41	0xbd982e25	-0.07430676
42	0x3ca7d0a1	0.020485224
43	0x3c99b8b3	0.01876483
44	0x3da0eb38	0.078573644
45	0xbd04889d	-0.032356847
46	0xbd52ce03	-0.051466
47	0x3da51e3b	0.08062407
48	0x3d686c98	0.056744188
49	0xbd956eb3	-0.07296505
50	0xbd9e1c0b	-0.077201925
51	0x3cfbc8da	0.030735422
52	0xbd2838dc	-0.04106985
53	0x3c6b8c85	0.014376764
54	0xbbb15ab6	-0.005412425
55	0xbcd21aaf	-0.02564749
56	0x3d90413c	0.070436925
57	0x3cddce3b	0.027075877
58	0x3ccb79a3	0.024838274
59	0xbd7d7ec7	-0.061888482
60	0xbced11f5	-0.028939227
61	0x3d1dee9d	0.038557637
62	0x3d39b778	0.045340985
63	0x3c0fca2a	0.008776227
64	0xbda57464	-0.080788404
65	0xbd35c99e	-0.04438173
66	0x3da66f4d	0.08126698
67	0x3d89269d	0.06696818
68	0x3d31e90d	0.043435145
69	0xbd452cf3	-0.04813857
70	0xbd365240	-0.044512033
71	0x3cf405dc	0.02978795
72	0xbd8d821e	-0.069095835
73	0xbc1e1d8f	-0.009650602
74	0x3d015229	0.031572495
75	0x3d051dc3	0.032499086
76	0x3d262b9d	0.040568937
77	0x3ba0bec1	0.004905552
78	0x3d6289ae	0.055307083
79	0xbda542b4	-0.08069363
80	0xbd2e6d8e	-0.04258495
81	0xbcd07e07	-0.02545072
82	0x3d456291	0.048189703
83	0xbd83dfda	-0.06439181
84	0x3d78f858	0.060783714
85	0xbd43d76d	-0.047812868
86	0xbccc6a5d	-0.024953062
87	0x3d79d53a	0.060994364
88	0x3da54404	0.080696136
89	0x3cca43af	0.024690477
90	0xbc909e85	-0.017653713
91	0x3d6ec8ac	0.058296844
92	0xbb843061	-0.0040340875
93	0x3d4b6c31	0.049663726
94	0x3d08a1f3	0.03335757
95	0xbaf220ff	-0.0018472968
96	0x3d9f4775	0.07777301
97	0x3d22aa79	0.039713357
98	0x3d9e8bed	0.077415325
99	0x3d9f765b	0.077862464
100	0x3c826127	0.015915466
101	0xbd1e4216	-0.038637243
102	0xbce396a7	-0.027781798
103	0xbc57e289	-0.013176569
104	0xbcdcd9b0	-0.02695927
105	0x3c0ca531	0.008584307
106	0x3da423ec	0.08014664
107	0x3d5e577d	0.054282654
108	0x3cb89aca	0.022534747
109	0x3d2f6325	0.04281916
110	0xbd3ee61b	-0.046606164
111	0x3d07a0b3	0.03311224
112	0x3d93d979	0.07219214
113	0x3cd9edea	0.026602704
114	0x3a9cb141	0.0011954681
115	0x3d8848cf	0.06654512
116	0xbd8afe4b	-0.06786784
117	0x3d3e8396	0.04651221
118	0xbc831e0c	-0.016005538
119	0xbd9bd443	-0.07608845
120	0x3d3cfe9e	0.04614126
121	0xbc87ed4f	-0.01659265
122	0xbc985e39	-0.018599616
123	0xbd1ab142	-0.037766702
124	0xbcdf8d7e	-0.027289148
125	0xbc5066d0	-0.012719825
126	0xbda60082	-0.081055656
127	0x3d23e87e	0.040016644
128	0x3c2cd1fc	0.010548111
129	0x3cfa39bf	0.030545114
130	0x3da7e77f	0.08198451
131	0xbc9761c9	-0.018479245
132	0xbd4af73a	-0.04955218
133	0xbd5bb011	-0.053634707
134	0xbc3bb1b9	-0.011455947
135	0xbc844226	-0.016144823
136	0x3cefe1c9	0.029282467
137	0x3bbd6c73	0.0057807504
138	0x3ce05a19	0.027386712
139	0xbd2c75c3	-0.042104494
140	0xbd919e82	-0.07110311
141	0x3b436de9	0.002982015
142	0x3c8e2f22	0.017356459
143	0xbd21f804	-0.039543167
144	0xbcf1e8a8	-0.029529884
145	0xbc6fe80c	-0.014642727
146	0xbd97354d	-0.07383213
147	0x3d9d1eea	0.07671912
148	0x3d722a89	0.059122596
149	0xbd78171e	-0.06056892
150	0xbda1a84c	-0.07893428
151	0x3d926c96	0.071496174
152	0x3d8b9c37	0.06816905
153	0xbd985243	-0.07437565
154	0x3c8d0f6b	0.017219266
155	0xbd57d253	-0.052690815
156	0xbd7a2c9c	-0.0610777
157	0xbd6c8330	-0.057742298
158	0x3b130ef7	0.002243934
159	0x3d9b4ff6	0.07583611
160	0x3d1c31a0	0.038133264
161	0xbd9c9883	-0.07646277
162	0x3d34c16a	0.044129767
163	0x3d98862c	0.07447466
164	0x3d6ce202	0.057832725
165	0x3d9b4d94	0.07583156
166	0xbd45de99	-0.04830799
167	0xbd2d328b	-0.04228453
168	0x3d3a3260	0.045458198
169	0xbd85dca9	-0.06536228
170	0xbcc254fd	-0.023722166
171	0x3d70ee84	0.058821216
172	0x3ccc7467	0.024957849
173	0xbcb7bd0a	-0.022429008
174	0x3d05c5c5	0.03265931
175	0xbd1f8527	-0.038945343
176	0xbd2cd406	-0.04219439
177	0x3cc7604b	0.024337908
178	0xbd24b6ed	-0.040213514
179	0x3d694f10	0.056960166
180	0x3d14f1b6	0.036363326
181	0x3d4bb42d	0.049732376
182	0x3d710b4e	0.05884867
183	0x3c243582	0.010022523
184	0xbcfcbc08	-0.030851379
185	0xbd8ec43a	-0.06971021
186	0xbcc78e6d	-0.024359906
187	0xbd8ef65b	-0.06980582
188	0x3d4bd063	0.04975928
189	0x3bc6d946	0.0060683815
190	0xbd110a95	-0.035410482
191	0xbb41b6f0	-0.0029558502
192	0x3d7206ed	0.059088636
193	0xbd15ee1e	-0.03660404
194	0x3c7d2936	0.01545172
195	0x3c1c86cf	0.009553625
196	0xbc3c81f7	-0.011505595
197	0xbca01f95	-0.01954631
198	0x3cf97817	0.030452771
199	0xbcddabfa	-0.027059544
200	0xbd8b8e8d	-0.06814299
201	0x3c951d6b	0.018202504
202	0xbd463194	-0.048387125
203	0xbd2e9981	-0.04262686
204	0x3afc0bfb	0.0019229645
205	0x3d209678	0.039206
206	0xbcc7f58a	-0.024409074
207	0xbd4cc55c	-0.049992904
208	0x3d1a405d	0.037659038
209	0xbd526f8e	-0.051375918
210	0x3c8e8696	0.01739816
211	0x3cbca264	0.023026653
212	0xbb1feca6	-0.0024402528
213	0xbcb19fd3	-0.021682655
214	0xbc3de1db	-0.011589493
215	0xbd4119ea	-0.047143854
216	0x3d5c599c	0.053796396
217	0xbc0079cf	-0.007841541
218	0xbd0f4b68	-0.034984022
219	0xbd3b3604	-0.04570581
220	0x3d1334fe	0.03593921
221	0xbd529189	-0.051408324
222	0x3d0971af	0.033555683
223	0xb955773b	-0.0002035768
224	0xbd9cff09	-0.076658316
225	0x3d55b165	0.05217113
226	0x3d02e4aa	0.031956352
227	0x3d0c5e4c	0.034269616
228	0xbd19d9b5	-0.037561137
229	0xbd9401c8	-0.07226902
230	0x3d1d31c6	0.038377546
231	0xbd849905	-0.06474499
232	0x3d1e1faa	0.038604416
233	0x3d913689	0.0709048
234	0xbc3148ec	-0.010820609
235	0xbd8a24c5	-0.067452945
236	0x3d7af7d2	0.061271496
237	0xbda2dc85	-0.07952217
238	0xbce3b6c7	-0.027797116
239	0xbd7caccc	-0.06168823
240	0x3d0d1b4f	0.03444987
241	0x3d978525	0.07398442
242	0xbd5a9cd7	-0.05337223
243	0xbd446032	-0.0479433
244	0x3d87e439	0.06635327
245	0x3d2470d6	0.04014667
246	0x3d6ae483	0.057346832
247	0xbd73f377	-0.059558358
248	0x3d9cf1a3	0.07663276
249	0xbcf8d65c	-0.030375652
250	0xbd3c793f	-0.046014067
251	0xbce55c1d	-0.027998025
252	0x3ba2c28f	0.004967041
253	0x3d43894d	0.047738362
254	0xbcb0adc4	-0.021567233
255	0xbd6624dd	-0.0561875

conv1.bias f4 [32]
0	0xbd80585e	-0.06266855
1	0x3c96686d	0.018360341
2	0x3d4d621e	0.0501424
3	0xbd20fa44	-0.039301172
4	0xbcdafb1c	-0.026731066
5	0x3ce2d3a3	0.027688807
6	0x3d9ca921	0.07649446
7	0xbc8b6d39	-0.017019855
8	0xbda2a907	-0.07942396
9	0x3d6bba2d	0.057550598
10	0xbd94cd70	-0.072657466
11	0xbd2d534d	-0.04231577
12	0xbd6a4ad9	-0.057200287
13	0x3d1cd4dc	0.038288936
14	0x3d4b86ce	0.049689107
15	0x3d9e8749	0.07740647
16	0x3c010984	0.007875804
17	0xbd667fea	-0.056274332
18	0x3d74f44c	0.059803292
19	0x3d7fb681	0.06242991
20	0x3cd0a923	0.025471276
21	0x3ccc917a	0.024971712
22	0xbd7ae9a0	-0.06125796
23	0xbc90e31c	-0.01768642
24	0x3d9f14c5	0.07767633
25	0x3c725b47	0.01479227
26	0xbda2fea1	-0.07958723
27	0x3da5316a	0.080660656
28	0x3d5d2750	0.05399257
29	0x3d70db43	0.058802854
30	0x3d3eeb6f	0.046611246
31	0x3d1fc0ab	0.039002102

conv2.weight f4 [64, 32, 3, 3]
0	0x3d619a92	0.05507905
1	0x3cbcebb3	0.023061609
2	0xbd5f43b6	-0.054507934
3	0xbcf55759	-0.029948877
4	0x3c9adbd7	0.018903656
5	0xbd519989	-0.051171813
6	0xbd33b105	-0.04386999
7	0xbd36e15d	-0.044648517
8	0xbd1b4fac	-0.037917778
9	0x3cc84630	0.02444753
10	0x3d2315a3	0.039815556
11	0xbd07b3aa	-0.033130325
12	0xbced1fd5	-0.028945843
13	0xbc5942ee	-0.013260586
14	0xbca8ae3a	-0.02059089
15	0xbc82b47d	-0.015955204
16	0xbbe35ff2	-0.006938928
17	0x3d61fa4f	0.055170354
18	0xbd6b3bc1	-0.057430033
19	0x3c4a8e9a	0.0123631
20	0xbcc48678	-0.023989901
21	0xbd1d580a	-0.03841404
22	0x3c8267bf	0.01591861
23	0x3d0c6b26	0.034281872
24	0x3d58a9db	0.05289636
25	0xbcfc53da	-0.030801702
26	0xbb9126f0	-0.0044296905
27	0xbd3ba7ac	-0.0458142
28	0xbd05331c	-0.032519445
29	0x3bbbe9e3	0.0057346686
30	0x3d01978f	0.03163868
31	0xbc3ebd70	-0.011641845
32	0x3d151779	0.03639934
33	0x385e33a3	5.2977015e-05
34	0xbc822803	-0.01588822
35	0x3c638c04	0.013888363
36	0x3d446789	0.0479503
37	0x3cc62dcb	0.024191758
38	0xbcb4e6d5	-0.022082726
39	0xbcddda2d	-0.027081573
40	0x3d65aa09	0.05607036
41	0x3d3d9612	0.046285696
42	0x3d28997f	0.04116201
43	0xbd1046b9	-0.035223696
44	0xbd6b2b47	-0.05741432
45	0xbd2a1cea	-0.04153148
46	0x3cad83b9	0.021180974
47	0x3d65e3b5	0.05612536
48	0xbcd2a5d5	-0.02571384
49	0xbd6ee559	-0.05832419
50	0xbd1f4a68	-0.03888932
51	0x3cb82ed4	0.022483267
52	0x3d282f38	0.041060656
53	0xbc3a9eaa	-0.0113903675
54	0x3ae44e62	0.001741838
55	0xbd2ef66f	-0.042715486
56	0xbcdbfe5a	-0.026854683
57	0xbd1fb158	-0.038987488
58	0x3d1d926a	0.03846971
59	0xbc3c822a	-0.011505643
60	0xbcc7d876	-0.024395209
61	0xbbcdba92	-0.0062783444
62	0x3cda7a48	0.026669636
63	0xbd05b722	-0.032645352
64	0xbc084895	-0.008318086
65	0x3ccd18c4	0.025036223
66	0xbbe3a7e8	-0.006947506
67	0x3c9c98f6	0.019115906
68	0xbd21f3e5	-0.039539237
69	0xbb59c41e	-0.0033228467
70	0xbce9ed7a	-0.02855562
71	0x3d5e62c3	0.054293405
72	0xbd70f250	-0.058824837
73	0xbcf2b3a4	-0.029626675
74	0xbcbe6ca9	-0.023245173
75	0x3cd54369	0.02603312
76	0xbcd73642	-0.02627099
77	0xbd181157	-0.03712591
78	0xbb5ead0e	-0.003397766
79	0xbc9a54ef	-0.018839328
80	0x3d6a81fe	0.057252876
81	0x3d14e89f	0.036354657
82	0x3d3d32e3	0.046191107
83	0xbd49cf30	-0.049269855
84	0xbc7737be	-0.015088974
85	0xbd388680	-0.045050144
86	0x3d5a2e6c	0.053266928
87	0x3d0f896d	0.03504317
88	0xbd3c9957	-0.046044674
89	0xbd31ff68	-0.043456465
90	0x3ceebfcb	0.029144188
91	0xbcf4a2e0	-0.029862821
92	0x3c9a9565	0.018870065
93	0xbd53cae9	-0.051707182
94	0xbd407830	-0.04698962
95	0xbca3f7c1	-0.0200156
96	0xbd3c9d1d	-0.046048272
97	0x3d149183	0.036271583
98	0xbd381fcb	-0.044952195
99	0xbc9d49c0	-0.019200206
100	0xbd6bd99d	-0.05758058
101	0x3d5db249	0.054125104
102	0x3c1ed988	0.009695418
103	0xbd12614c	-0.03573732
104	0xbc528819	-0.012849831
105	0x3c916354	0.017747559
106	0xbca4a142	-0.020096425
107	0x3d40d4e9	0.047078047
108	0xbc5d8993	-0.01352157
109	0x3d61f5b4	0.05516596
110	0x3d03bdea	0.032163538
111	0x3d2a69d2	0.041604824
112	0x3ace898b	0.0015757544
113	0xbc8b0d1e	-0.016974028
114	0x3ccdadbb	0.025107255
115	0x3d17bd91	0.03704602
116	0x3c046065	0.008079623
117	0x3c4379e6	0.011930918
118	0x3d5048fe	0.05085086
119	0xbd023829	-0.03179184
120	0xbc4d9c22	-0.012549432
121	0x3b989045	0.00465587
122	0xbbdcaa35	-0.0067341574
123	0xbd0a265c	-0.03372799
124	0x3c9bfa58	0.019040272
125	0x3c3c0776	0.011476388
126	0xbd11d7d4	-0.03560622
127	0xbb54a906	-0.0032449379
128	0x3be0b3af	0.0068573575
129	0xbbc1f6df	-0.005919322
130	0x3c955d8f	0.018233089
131	0xbd5d5c5d	-0.054043163
132	0xbc03b704	-0.00803924
133	0x3d328bd1	0.04359037
134	0x3ae7d49b	0.0017687263
135	0xbbdf288f	-0.006810255
136	0xbc82b16a	-0.015953738
137	0xbc124fce	-0.00893016
138	0xbbde90f3	-0.0067921816
139	0xbcea0a03	-0.028569227
140	0xbd2bc189	-0.041932616
141	0xbba09ae9	-0.004901279
142	0x3d6fe72d	0.058570076
143	0x3d36a9fa	0.044595696
144	0x3b3f1bf8	0.0029160958
145	0x3cd1867a	0.025576819
146	0x3c55509c	0.013019707
147	0xbcf70ebe	-0.030158397
148	0x3caed9a0	0.021344006
149	0x3cdd2611	0.02699569
150	0xbb7ad6c6	-0.0038274988
151	0x3d103cab	0.035214107
152	0x3cc0bd71	0.023527833
153	0xbce4ba19	-0.02792077
154	0x3c8cc17c	0.017182104
155	0x3cdc717e	0.026909586
156	0x3d3eae49	0.04655293
157	0xbd247389	-0.040149245
158	0xbd5e7db1	-0.054319087
159	0xbcbd0a6c	-0.023076259
160	0x3ba35075	0.0049839565
161	0xbd3e52b2	-0.046465583
162	0xbc6cbdc9	-0.014449545
163	0xbd2ff799	-0.042960737
164	0xbd360e51	-0.044447247
165	0x3c939e32	0.01801977
166	0x3cecfb35	0.028928379
167	0x3c04d315	0.0081069665
168	0x3d27f9b5	0.041009624
169	0xbc64d1e8	-0.013966061
170	0x3bff1ed9	0.0077856597
171	0x3d32368b	0.043509047
172	0x3d483ae0	0.048884273
173	0x3c8ae8b8	0.016956672
174	0xbd4dc7f5	-0.050239522
175	0x3c6afe9d	0.014342931
176	0x3d2e535a	0.04255996
177	0x3ca50c9c	0.020147614
178	0xbd6d44aa	-0.05792681
179	0xbc9ccd14	-0.019140758
180	0xbcf6d3dd	-0.030130321
181	0xbd5911e3	-0.052995574
182	0xbd48b19b	-0.048997503
183	0x3d1c3b3a	0.03814242
184	0xbd1a7858	-0.037712425
185	0xbd115e3f	-0.03549027
186	0xbcd19912	-0.025585685
187	0xbbcc32fe	-0.0062316647
188	0x3d0f9473	0.03505368
189	0xbd6dac80	-0.058025837
190	0xbcd7a36e	-0.026323047
191	0xbc1cc5da	-0.009568656
192	0x3c8623a1	0.016374411
193	0xbd05c956	-0.032662712
194	0xbc82de2d	-0.015975082
195	0xbd019ddd	-0.03164469
196	0xbc580830	-0.013185546
197	0x3cf9f3ab	0.030511698
198	0xbccbe3a6	-0.024888825
199	0xbc015ba5	-0.007895385
200	0xbd1dfd21	-0.03857148
201	0x3c871e9c	0.016494088
202	0xbd1ad75b	-0.037803035
203	0x3c6061a7	0.013695157
204	0xbd700f33	-0.058608245
205	0x3cbce594	0.02305869
206	0x3cae2c73	0.02126143
207	0xbd36ed04	-0.04465963
208	0xbbf48da6	-0.007463175
209	0xbd10a881	-0.035316948
210	0xbce62b55	-0.028096834
211	0x3cdff8ed	0.027340377
212	0xbd09a626	-0.033605717
213	0x3d0876e4	0.033316508
214	0x3cf466c7	0.029834164
215	0x3d589679	0.052877877
216	0xbcb40da7	-0.021979166
217	0xbd55b839	-0.05217764
218	0x3d1c989f	0.03823149
219	0xbc61c326	-0.013779437
220	0xbcbd4012	-0.02310184
221	0xbce3dbff	-0.027814863
222	0x3d60d9eb	0.054895323
223	0xbd3b537e	-0.04573392
224	0x3c53a748	0.012918301
225	0x3c44268a	0.011972079
226	0xbcba1a6b	-0.022717675
227	0x3d0a30e5	0.033738036
228	0x3d0ca49a	0.034336664
229	0x3d235674	0.03987737
230	0x3c83b35d	0.016076738
231	0x3c81fdac	0.01586803
232	0x3c8a65dc	0.016894273
233	0xbc9877a4	-0.018611737
234	0xbd409f83	-0.047027122
235	0x3aea0f79	0.0017857394
236	0x3bb4a94e	0.0055133468
237	0x3d1565bf	0.036473986
238	0x3c23f6ff	0.010007619
239	0x3ae36a67	0.0017350436
240	0xbcaa4af0	-0.020787686
241	0x3d4a6cf2	0.049420305
242	0x3d55cd8d	0.05219798
243	0x3d6d695d	0.05796181
244	0xbb768399	-0.003761506
245	0xbcecc56e	-0.028902736
246	0xbd4355b9	-0.047689173
247	0xbd6d7445	-0.05797221
248	0xbd411386	-0.04713776
249	0xbc9a38d5	-0.018825928
250	0x3d3c1665	0.045919795
251	0xbd5e5f84	-0.05429031
252	0xbc8eff60	-0.017455757
253	0x3cc29291	0.023751529
254	0x3ce379f9	0.027768122
255	0x3b2f1fa1	0.0026721733

conv2.bias f4 [64]
0	0x3d702900	0.05863285
1	0x3ce7153d	0.02820837
2	0x3cd00131	0.025391193
3	0x3d494b98	0.049144357
4	0xbcc36076	-0.023849707
5	0xbd342045	-0.043976087
6	0x3d570ffd	0.052505482
7	0xbd1ae08e	-0.03781181
8	0xbd634835	-0.055488784
9	0xbc5d5463	-0.013508889
10	0xbd5ddd10	-0.0541659
11	0x3d15a473	0.036533784
12	0x3b8f6e94	0.0043771956
13	0x3d6e354e	0.058156304
14	0xbcb9d21e	-0.0226832
15	0xbd47a2ab	-0.048739117
16	0xbcf41510	-0.0297952
17	0xbb07db34	-0.002073002
18	0x3d28f87d	0.041252602
19	0x3d65acd7	0.056073036
20	0x3d4e51b0	0.050370872
21	0x3c295e59	0.010337436
22	0x3d568415	0.052372057
23	0x3bd6c0d7	0.00655375
24	0xbd2b5f47	-0.04183891
25	0x3d56ae9b	0.05241261
26	0x3cc0b7cf	0.023525147
27	0x3d2b65f9	0.041845296
28	0x3d620b1a	0.05518637
29	0x3d48059a	0.048833467
30	0xbd398830	-0.045295894
31	0x3d788cfc	0.06068133
32	0xbce1b71b	-0.027553132
33	0x3cbdcb5c	0.023168258
34	0xbd300b22	-0.042979367
35	0x3d229825	0.039695878
36	0xbb7ab96d	-0.0038257495
37	0x3d18759f	0.037221547
38	0x3d684402	0.056705482
39	0xbc0dcdb8	-0.008655004
40	0x3c7d298d	0.015451801
41	0xbc4bb1f3	-0.012432563
42	0x3c8e5c1c	0.017377906
43	0xbd5c8fff	-0.053848263
44	0x3c38d136	0.0112803485
45	0x3d23bbd7	0.03997406
46	0xbd40256e	-0.046910696
47	0xbc8e7b50	-0.017392784
48	0xbc11c853	-0.008897859
49	0x3cba0e1a	0.022711802
50	0x3c1750e1	0.009235592
51	0x3d3513ff	0.044208523
52	0xbce523aa	-0.027971108
53	0xbd287e47	-0.041136052
54	0x3cd4738c	0.025934003
55	0xbbe64f81	-0.0070285206
56	0x3cbcf31a	0.023065139
57	0xbc83015e	-0.015991863
58	0x3d2593f7	0.040424313
59	0xbcfc196e	-0.030773845
60	0xbd425fc9	-0.04745463
61	0xbd000344	-0.031253114
62	0xbcba8f5f	-0.022773443
63	0x3b540145	0.003234939

conv3.weight f4 [128, 64, 3, 3]
0	0xbb5f68ae	-0.0034089494
1	0x3d11f925	0.035637993
2	0x3c83bb8a	0.016080637
3	0xbd144022	-0.036193974
4	0xbd26be56	-0.040708862
5	0x3cf10d59	0.02942531
6	0x3ce3ab65	0.027791688
7	0x3bcb2f06	0.006200674
8	0x3c2878e5	0.01028273
9	0xbd2614ad	-0.04054706
10	0xbd0d7345	-0.034533758
11	0x3cbd045d	0.02307337
12	0x3c1ecc5a	0.009692276
13	0x3cc2e077	0.023788674
14	0x3ca4f315	0.020135442
15	0x3bf34f60	0.0074252337
16	0x3d0182e1	0.031618956
17	0xbc83d206	-0.016091358
18	0x3b5dcb2f	0.003384303
19	0x3d2a8d00	0.041638374
20	0x3ac0fcfd	0.0014723834
21	0x3cde0fd4	0.027107157
22	0x3cf6a589	0.03010823
23	0x3c6db001	0.014507295
24	0x3c47642a	0.012169877
25	0x3c4409a2	0.011965187
26	0x3c2b5e44	0.010459486
27	0x3ccf8901	0.025333883
28	0x3c9ef97e	0.019406077
29	0x3cae5906	0.021282684
30	0xbd10543b	-0.03523658
31	0x3bbac1d2	0.0056993747
32	0xbb98eb41	-0.0046667163
33	0xbcd29919	-0.025707768
34	0x3c2c3c99	0.0105124945
35	0x3caa799b	0.02080994
36	0xbc78893a	-0.015169436
37	0xbc16c1d9	-0.00920149
38	0xbcdaab10	-0.026692897
39	0x3baed8d6	0.0053359075
40	0x3cc21f8c	0.023696683
41	0xbaebdd4a	-0.0017995026
42	0x3c8b80ce	0.017029192
43	0x3c9a28f0	0.018818349
44	0xba96d9e6	-0.0011509031
45	0xbc96c652	-0.018405113
46	0xbc8896c2	-0.01667345
47	0x3bfd25f0	0.00772547
48	0x3ce04610	0.027377158
49	0x3ce47a1b	0.027890256
50	0xbbf2dec3	-0.007411809
51	0x3cc46e77	0.023978455
52	0xbd00597f	-0.03133535
53	0xbcc41168	-0.023934081
54	0xbd1e97b8	-0.03871891
55	0xbcc3cfe6	-0.023902845
56	0x3ce1caa1	0.027562441
57	0xbc3aa696	-0.011392256
58	0xbbc49954	-0.0059997234
59	0x3ba0f48b	0.0049119643
60	0xbb893e95	-0.0041883686
61	0xbc7315f3	-0.014836776
62	0x3c8c9ecb	0.017165562
63	0x3c9a26cf	0.018817334
64	0x3bedbc75	0.007255132
65	0xbbcfbfd7	-0.0063400078
66	0xbcde0e8a	-0.027106542
67	0xbc8c4359	-0.017121958
68	0xbb61c9c3	-0.0034452535
69	0x3cd33948	0.02578415
70	0x3cac0092	0.020996366
71	0x3d2053b6	0.039142333
72	0x3cc9cf24	0.024634905
73	0xbce693f1	-0.028146716
74	0xbcc5229e	-0.024064358
75	0xbb4f675c	-0.00316473
76	0xbc4d8ced	-0.012545806
77	0x3d0b04e2	0.033940203
78	0xbcc73f75	-0.02432225
79	0x3be527a7	0.0069932523
80	0x3b979ac9	0.004626606
81	0x3d06525e	0.032793395
82	0x3b7a2d37	0.0038173923
83	0x3b541a1d	0.0032364198
84	0x3c159305	0.0091292905
85	0xbbc5b5f2	-0.0060336525
86	0x3c25f9e0	0.010130376
87	0xbd2394f3	-0.03993697
88	0x3c4ec842	0.012620987
89	0x3c4af1a5	0.012386714
90	0xbd242891	-0.04007775
91	0x3d275884	0.0408559
92	0x3c68b68e	0.014203681
93	0x3a9abae6	0.0011804968
94	0xbbe9a15b	-0.007129831
95	0x3cf1edff	0.02953243
96	0x3c9c4952	0.01907793
97	0x3c4e11a4	0.012577448
98	0x3d03de54	0.03219445
99	0x3bb22478	0.0054364763
100	0xbc579c2c	-0.013159793
101	0xbca272fd	-0.019830221
102	0x3bf6fb5a	0.0075372877
103	0xbc0b81a6	-0.008514797
104	0xbced0cb1	-0.028936716
105	0xbcf9149f	-0.03040534
106	0xbcba016f	-0.022705762
107	0xbce102c0	-0.027467132
108	0x3b6ce026	0.0036144345
109	0xbca6c9a5	-0.020359823
110	0xbbf4a030	-0.007465385
111	0x3d26b5ce	0.040700726
112	0xbca66b1f	-0.020314751
113	0x3c486816	0.012231847
114	0xbca57ca7	-0.02020104
115	0xbcee9257	-0.029122515
116	0x3d218a9b	0.039438825
117	0xbd0272cb	-0.031847756
118	0xbaa2f618	-0.0012432961
119	0x3c8e7456	0.017389458
120	0x3c8adcdc	0.016951017
121	0x3c68cba2	0.014208706
122	0x3ce20b90	0.027593404
123	0xbd0028fe	-0.031289093
124	0xbcf88db5	-0.030341009
125	0xbc79512c	-0.015217107
126	0x3cfb35ae	0.030665245
127	0xbd1e315a	-0.038621284
128	0xbd131476	-0.035908185
129	0x3cc33475	0.023828724
130	0xbd26597e	-0.04061269
131	0x3ac5069c	0.0015031877
132	0xbcec2060	-0.028824031
133	0x3c9eed1b	0.01940017
134	0xbd282c4e	-0.041057877
135	0x3ce0bfe6	0.027435254
136	0xbc922c2a	-0.017843325
137	0x3c52e90c	0.0128729455
138	0x3d1ae2f8	0.03781411
139	0xbd0fe824	-0.035133496
140	0x3d154073	0.036438417
141	0x3d014977	0.031564202
142	0x3d174958	0.03693518
143	0x3a2b3729	0.0006531352
144	0xbc2c325b	-0.010510053
145	0xbd1258af	-0.035729107
146	0xbb9b54c8	-0.0047403313
147	0xbca812d1	-0.020516785
148	0xbd09cb6f	-0.033641275
149	0x3aaacf3f	0.0013031735
150	0xbba9ab61	-0.0051779007
151	0xbc027c82	-0.007964255
152	0xbd1e8224	-0.03869833
153	0xbd054e01	-0.032545093
154	0x3b55d7bf	0.0032629815
155	0xbcea31a1	-0.028588118
156	0x3ce2dc4d	0.027692938
157	0xb93f8b5f	-0.00018267099
158	0xbcdc2a13	-0.026875531
159	0x3cea783a	0.028621782
160	0xbcd74e76	-0.02628253
161	0x3ca3d212	0.01999763
162	0xbca0d2e3	-0.019631809
163	0xbd022b78	-0.031779736
164	0xbd1b9fab	-0.037994068
165	0xbbada982	-0.005299748
166	0xbbec9086	-0.007219377
167	0xbc0758a8	-0.008260883
168	0xbd0405ea	-0.032232203
169	0x3d227118	0.039658636
170	0xbb530cdc	-0.003220371
171	0x3c806220	0.01567179
172	0xbcd580cb	-0.02606239
173	0x3c815c36	0.01579104
174	0x3d17569e	0.03694784
175	0xbc398389	-0.011322864
176	0xbc289d40	-0.010291398
177	0xbc92291e	-0.017841872
178	0x3c8a8b6e	0.016912188
179	0x3d2863c9	0.041110788
180	0x3cccd9e3	0.02500624
181	0xbd28a3ce	-0.04117184
182	0xbc985c1e	-0.018598612
183	0xbcb61edc	-0.022231512
184	0x3c80f26e	0.0157406
185	0xbcd61fca	-0.026138205
186	0xbd1be16f	-0.038056787
187	0x3c1a1094	0.009403367
188	0xbc866907	-0.016407503
189	0x3c885eba	0.016646732
190	0xbccd3405	-0.025049219
191	0x3d1b70a1	0.03794921
192	0xbbeab3a8	-0.00716253
193	0xbccad54c	-0.024759911
194	0x3d10ac5d	0.03532063
195	0x3d0ad845	0.033897657
196	0xba60891d	-0.00085653533
197	0xbc4f9ab7	-0.012671164
198	0xbce8df88	-0.0284269
199	0xbd0385b6	-0.03210994
200	0x3c4ddfa7	0.01256553
201	0xbd11a3d0	-0.035556614
202	0x3cf8e5f2	0.030383084
203	0xbcc67e69	-0.024230199
204	0x3d16ccd1	0.036816422
205	0x3c97fbe3	0.018552726
206	0xbcb72e0b	-0.022360822
207	0xbd17f840	-0.037101984
208	0x3ba479fd	0.005019425
209	0x3cd294d8	0.02570574
210	0x3c8fce16	0.017554324
211	0xbd0993ed	-0.03358834
212	0xbd1108c0	-0.035408735
213	0x3c96a61a	0.01838975
214	0xbd28c74a	-0.04120568
215	0x3ca5f557	0.020258589
216	0x3ab5d8dc	0.0013873833
217	0xbccac07d	-0.024749989
218	0x3c040ca6	0.008059656
219	0x3ca70686	0.020388853
220	0xbcc28f2c	-0.02374991
221	0x3c1d9c05	0.0096197175
222	0xbd07f8aa	-0.03319613
223	0xbce29b06	-0.027661812
224	0xbc401887	-0.011724598
225	0x3ab5ca46	0.0013869486
226	0x3c963374	0.018335082
227	0x3c46f0f7	0.012142411
228	0x3c88e4f4	0.016710736
229	0xbba3f3c2	-0.0050034234
230	0xbc4f8ec1	-0.0126683125
231	0xbd2543bf	-0.04034781
232	0x3cd561b8	0.026047572
233	0xbc553985	-0.013014202
234	0xbd02785f	-0.031853076
235	0xbcce55ba	-0.025187362
236	0xbcfac5dd	-0.030611927
237	0xbbb46f99	-0.0055064675
238	0xbc94eca5	-0.018179247
239	0xbcd27687	-0.025691284
240	0xbd25a9a4	-0.040444985
241	0xbd0a2236	-0.033724032
242	0xbc821359	-0.015878366
243	0x3d28fda7	0.041257527
244	0xbba3feb3	-0.0050047277
245	0xbd19e5f8	-0.03757283
246	0x3c6ec413	0.014573115
247	0xbd27bcfc	-0.040951714
248	0x3c3a994a	0.011389086
249	0xb9df6a2e	-0.00042612985
250	0xbd023f5e	-0.031798713
251	0xbc98479c	-0.018588834
252	0xbc9860ae	-0.018600788
253	0xbcfcf531	-0.030878635
254	0xbcca15f7	-0.024668677
255	0x3cc7c5c2	0.02438629

conv3.bias f4 [128]
0	0x3d13000e	0.035888724
1	0x3cd5e153	0.02610842
2	0x3c11e12b	0.008903782
3	0x3cb6acb6	0.022299152
4	0x3c9d441d	0.019197518
5	0xbc3eab12	-0.011637466
6	0x3c5bdbeb	0.013419132
7	0xbd0f9f00	-0.035063744
8	0xbcd1e002	-0.02561951
9	0xbc21c76b	-0.009874205
10	0xbbb5acfd	-0.0055443035
11	0xbcab855e	-0.020937618
12	0x3cd2f01a	0.025749255
13	0xbc798de9	-0.015231588
14	0x3c8c269a	0.01710825
15	0x3ce7b8ca	0.028286356
16	0xbd18268c	-0.037146136
17	0x3d12e559	0.035863254
18	0xbc2c7934	-0.010526944
19	0xbcf20d42	-0.029547337
20	0x3d2af706	0.041739486
21	0x3cd32c61	0.025777997
22	0xbcf4b5e6	-0.029871892
23	0xbc47392b	-0.012159626
24	0xbd0e9ecf	-0.03481942
25	0x3b658583	0.0035022206
26	0xbceb2fa1	-0.028709235
27	0xbcb058a2	-0.021526638
28	0xbd1e6c8f	-0.03867775
29	0xbc99b681	-0.018763782
30	0xb9a2a9f6	-0.0003102568
31	0xbcde5be0	-0.027143419
32	0xbbebafb3	-0.007192576
33	0xbc5fd70d	-0.013662112
34	0x3ca2059a	0.019778062
35	0xbb105c50	-0.0022027679
36	0xbc149efd	-0.009071109
37	0xbcd69e60	-0.026198566
38	0xbc55dcf0	-0.013053164
39	0x3ce93a8d	0.028470302
40	0xbd24af3f	-0.04020619
41	0x3cc80a75	0.024419049
42	0x3bc13051	0.0058956523
43	0x3bf81fd7	0.007572155
44	0xbbbf007a	-0.005828914
45	0xbcf3167d	-0.02967381
46	0x3c3c7704	0.011502985
47	0x3bd24e28	0.0064180084
48	0xbd07fec4	-0.033201948
49	0x3d080e03	0.033216488
50	0xbb5bbfbc	-0.003353103
51	0x3ca56ced	0.020193541
52	0x3cc67352	0.02422491
53	0x3cab767d	0.020930523
54	0xba698308	-0.000890777
55	0xbb814dc8	-0.00394604
56	0x3cde14d0	0.027109534
57	0x3cac44c4	0.021028884
58	0x3cb77e93	0.022399222
59	0xbd21d7d0	-0.039512455
60	0x3cd68d9f	0.026190577
61	0xbaafd032	-0.0013413487
62	0x3c487573	0.012235033
63	0x3c0b5fcc	0.0085067265
64	0xbcb5c08f	-0.022186546
65	0x3ca51cdb	0.02015536
66	0x3cc0cf23	0.02353627
67	0xbbbe808a	-0.005813663
68	0xbc1246f9	-0.008928054
69	0xbd1d1de0	-0.03835857
70	0xbb29e487	-0.0025923566
71	0x3d202a7d	0.03910302
72	0x3d06d595	0.03291853
73	0xbae292b3	-0.0017286151
74	0x3c13a05f	0.009010403
75	0xbcbb201e	-0.022842463
76	0xbbc9f63b	-0.006163386
77	0x3d062065	0.032745738
78	0xbc9448c6	-0.018101107
79	0x3a740f4f	0.00093101425
80	0x3d23ca29	0.039987717
81	0x3cf26170	0.029587477
82	0xbb9a494a	-0.004708444
83	0x3ced2f66	0.028953265
84	0x3c71563b	0.014730032
85	0x3c714008	0.014724739
86	0x3cbca465	0.023027608
87	0x3d1886e5	0.03723802
88	0x3cd10f0f	0.025519876
89	0xba10d41f	-0.00055247726
90	0xbd2785b8	-0.04089901
91	0x3ccfec63	0.025381273
92	0xbc29a5a5	-0.010354434
93	0xbb2b0ba4	-0.0026099468
94	0x3c01d88b	0.007925163
95	0x3d1c8dc7	0.038221147
96	0xbd0715df	-0.032979842
97	0x3be07613	0.006850013
98	0x3b3012f6	0.002686677
99	0xbc816d89	-0.0157993
100	0xbd286341	-0.04111028
101	0x3d08ff9b	0.03344689
102	0xbcd46bfb	-0.025930395
103	0x3d060ed6	0.032728992
104	0xbbe5f447	-0.0070176455
105	0x3b85899a	0.0040752413
106	0xbd1a23d8	-0.03763184
107	0xbcd64d2a	-0.026159842
108	0xbc4d8258	-0.012543283
109	0x3b7e2936	0.0038781888
110	0xbcc6282a	-0.024189074
111	0xbce42110	-0.027847797
112	0x3b8e37fc	0.00434017
113	0xbb806b30	-0.0039190277
114	0x3ccaa265	0.024735639
115	0xbd111bb4	-0.03542681
116	0x3bec18d1	0.007205107
117	0x3d2a5532	0.041585155
118	0x3d294954	0.041329697
119	0x3c330ffa	0.010929102
120	0xbcacbf6d	-0.021087373
121	0xbc46e8a7	-0.01214043
122	0x3d05c70c	0.03266053
123	0x3d0214e1	0.031758193
124	0x3d125336	0.035723887
125	0x3bd28e00	0.006425619
126	0x3c99eabf	0.018788693
127	0x3c7ceaaf	0.015436812

fc.weight f4 [18, 128]
0	0xbd926713	-0.07148566
1	0x3d29b938	0.041436404
2	0x3c6ebb0e	0.0145709645
3	0x3d77f5ea	0.060537256
4	0x3d591d8b	0.05300669
5	0x3da0aaf9	0.078451104
6	0x3b50ed90	0.003187988
7	0x3cfc1f7e	0.030776735
8	0xbd7f640a	-0.062351264
9	0x3d3849a6	0.04499211
10	0xbd664aaf	-0.056223568
11	0xbd357019	-0.044296358
12	0xbd318fef	-0.043350156
13	0x3d2646ce	0.04059487
14	0x3d55b50b	0.05217461
15	0x3cd45c5d	0.025922948
16	0x3dbdaaa9	0.092610665
17	0x3d2d7975	0.04235216
18	0x3d3e9b76	0.046534978
19	0x3db3f2f5	0.08786575
20	0xbd10c004	-0.03533937
21	0xbda113a1	-0.07865072
22	0x3c4c2896	0.012460848
23	0xbd3cd2d5	-0.046099503
24	0x3d8f7cba	0.070062116
25	0xbd8b7db1	-0.06811083
26	0x3d6b118b	0.057389777
27	0x3cf92436	0.030412775
28	0xbd264d89	-0.040601287
29	0x3d225845	0.03963496
30	0x3ceecfd5	0.029151836
31	0x3d41fcf4	0.047360376
32	0x3c005a7a	0.007834071
33	0xbbbd8ce8	-0.0057846196
34	0x3dad1eed	0.08453164
35	0x3d88fd87	0.066889815
36	0x3da28697	0.07935827
37	0x3da1f381	0.07907773
38	0xbc7b34a8	-0.015332378
39	0xbd8964be	-0.06708668
40	0xbd007b42	-0.031367548
41	0xbc0dcd91	-0.008654968
42	0x3d20ce92	0.0392595
43	0x3db1c204	0.08679584
44	0xbd9b310d	-0.07577715
45	0x3cb92b74	0.022603728
46	0x3c6322d9	0.013863289
47	0x3d41dca4	0.04732956
48	0xbc0c1940	-0.008550942
49	0x3d499626	0.04921546
50	0xbd82bfe2	-0.06384255
51	0xbc8c2c86	-0.017111074
52	0xbd448d03	-0.04798604
53	0x3d92de10	0.07171261
54	0xbd6f2706	-0.058386825
55	0xbd9df9bb	-0.07713648
56	0xbd3daf8b	-0.04630999
57	0xbdabc84f	-0.08387815
58	0x3d713281	0.058886055
59	0xbd3486a2	-0.04407371
60	0x3d44dda1	0.048062924
61	0xbd927953	-0.07152047
62	0x3db6ef8b	0.08932408
63	0x3c856c23	0.016286915
64	0x3ca02442	0.01954854
65	0x3d76ae92	0.060225077
66	0xbdac32af	-0.08408105
67	0xbd8d1fbd	-0.06890819
68	0xbdb207f3	-0.086929224
69	0xbba4799c	-0.00501938
70	0x3da644b1	0.081185706
71	0xbd2c52c1	-0.042071108
72	0xbdaab87d	-0.083359696
73	0xbd5266c6	-0.051367544
74	0x3ced8f85	0.0289991
75	0x3da6ebb7	0.08150428
76	0xbda26dc8	-0.07931095
77	0xbb3ac8a1	-0.0028500932
78	0x3d7f1612	0.062276907
79	0xbc8ca1fd	-0.017167086
80	0xbc71f318	-0.014767431
81	0x3d3ffc7d	0.04687165
82	0xbd36e69f	-0.04465353
83	0xbd087d83	-0.033322822
84	0x3c697d19	0.014251017
85	0xbb3d96d1	-0.0028929005
86	0x3c27f44c	0.010251116
87	0xbc1480d2	-0.009063916
88	0x3c7734dd	0.015088287
89	0xbc8c19a4	-0.01710207
90	0x3da25a4b	0.07927378
91	0xbc151bf4	-0.009100903
92	0xbd6e5ce0	-0.05819404
93	0x3d2f9fc8	0.04287699
94	0x3cc3c37e	0.023896929
95	0x3dbb5ccb	0.09148558
96	0x3d8ffd42	0.07030727
97	0xbd398dc3	-0.04530121
98	0xbd49c312	-0.0492583
99	0xbd0db970	-0.034600675
100	0x3d08baca	0.03338126
101	0x3d77bd8b	0.060483497
102	0x3ce2918c	0.027657293
103	0x3ca7661d	0.020434434
104	0xbd49dd81	-0.04928351
105	0xbc943608	-0.01809217
106	0x3d9805af	0.07422959
107	0xbd24eabb	-0.04026292
108	0xbd544bc9	-0.051830087
109	0x3da45764	0.08024481
110	0x3c4d33ff	0.012524604
111	0x3cfce73c	0.03087198
112	0xbd87700b	-0.066131674
113	0x3d36e99b	0.044656377
114	0x3d3c3517	0.045949068
115	0x3cfc4363	0.030793851
116	0xbd389e96	-0.045073114
117	0x3d96188a	0.07328899
118	0x3cbc3a6f	0.022977082
119	0xbd9f6ab2	-0.077840224
120	0x3b9824bc	0.004643051
121	0xbd33aca6	-0.043865822
122	0x3d87bdd3	0.06628003
123	0x3db21bdc	0.0869672
124	0x3cbf54e2	0.023355905
125	0x3d318055	0.043335278
126	0xbd883444	-0.06650594
127	0x3d5df6fb	0.054190617
128	0x3db3bd51	0.087763436
129	0x3bad2116	0.005283485
130	0x3d944110	0.07238972
131	0xbd8d9c4b	-0.06914576
132	0x3da824a7	0.08210116
133	0xbd3c3921	-0.04595292
134	0x3d012677	0.031530824
135	0xbd9342eb	-0.07190498
136	0x3d107e08	0.035276443
137	0xbd3b3b11	-0.045710627
138	0x3c8f4dd3	0.017493164
139	0x3dacdf75	0.084410585
140	0xbda43316	-0.08017556
141	0xbcbb19c1	-0.022839429
142	0x3d91d9c2	0.07121612
143	0xbcfe1b6f	-0.03101894
144	0x3d838c0d	0.06423197
145	0x3da46a2d	0.08028064
146	0xbd91e5b0	-0.071238875
147	0xbd815190	-0.06314385
148	0xbc4180a7	-0.011810458
149	0xbd7b78ba	-0.06139443
150	0xbb430edd	-0.0029763498
151	0xbc9d55df	-0.019205986
152	0x3cbcbc7c	0.023039095
153	0xbd3cf4ac	-0.046131775
154	0xbd8e0325	-0.069341935
155	0x3da844b4	0.08216229
156	0x3d0961b3	0.03354044
157	0x3da98fc9	0.08279378
158	0x3d82de9a	0.06390114
159	0x3ce8bca6	0.028410267
160	0xbbda4f0a	-0.006662254
161	0x3d0971dd	0.033555854
162	0xbd94c2e4	-0.07263735
163	0xbcbb41d2	-0.022858534
164	0x3c884f4c	0.016639374
165	0xbc7b1571	-0.015324936
166	0x3d4c291b	0.04984389
167	0xbc598b20	-0.013277799
168	0xbd9e317f	-0.077242844
169	0xbd23dac4	-0.040003553
170	0xbb96005a	-0.0045776786
171	0xbce0f82f	-0.027462093
172	0x3cb2f90f	0.021847276
173	0x3cd61eb4	0.026137687
174	0x3c390e18	0.011294864
175	0xbcd2ab81	-0.025716545
176	0xbd5b3437	-0.053516593
177	0x3d88e33e	0.06683968
178	0x3d96bbe2	0.073600546
179	0xbd8700f6	-0.0659198
180	0xbc8b090c	-0.016972087
181	0x3cb11a08	0.021618858
182	0x3d9ac659	0.07557363
183	0x3d86dd87	0.06585222
184	0xbbf5dfe7	-0.007503498
185	0xbd6b6085	-0.057465095
186	0xbd066d89	-0.032819305
187	0x3d4d6b1f	0.050150987
188	0xbcf28946	-0.029606473
189	0x3bd578a5	0.006514626
190	0xbd65bbf2	-0.05608744
191	0xbd99290b	-0.074785315
192	0x3c9afdd3	0.018919861
193	0x3db030ce	0.08603059
194	0x3b17e237	0.0023175606
195	0xba5961bf	-0.00082924584
196	0xbce295d0	-0.027659327
197	0x3d545eed	0.05184834
198	0x3cd7f244	0.026360638
199	0x3d23dad3	0.04000361
200	0xbcc0b3f4	-0.023523308
201	0x3b58c238	0.0033074748
202	0x3d83f3a1	0.06442953
203	0xbda3cbfb	-0.079978906
204	0xbd8d12a7	-0.06888323
205	0x3d9d80ae	0.07690559
206	0x3c9ec03a	0.01937877
207	0xbd98d3ef	-0.07462298
208	0x3c6a43fa	0.014298433
209	0xbcd3387c	-0.02578377
210	0xbdb2aabf	-0.087239735
211	0xbd29b6e2	-0.041434176
212	0x3d67be59	0.056578014
213	0x3d38d442	0.0451243
214	0xbd480544	-0.048833147
215	0x3d9bd2b2	0.07608546
216	0x3b559777	0.00325915
217	0xbcb4b5c0	-0.022059321
218	0x3da0b556	0.07847087
219	0x3d83a8c7	0.06428676
220	0x3d7fa691	0.06241471
221	0x3cfd67f9	0.030933367
222	0x3d16c5ca	0.03680972
223	0xbda3db23	-0.080007814
224	0x3d1050b5	0.03523322
225	0x3d54ff51	0.0520013
226	0xbda74f52	-0.08169426
227	0x3d97221b	0.07379552
228	0xbc948aa0	-0.018132508
229	0x3cca63e8	0.024705842
230	0xbd8ef2ad	-0.069798805
231	0xbb107120	-0.0022040084
232	0xbd929ca2	-0.071587816
233	0xbd832ab3	-0.064046286
234	0x3c0a20f0	0.0084307045
235	0xbaf0f000	-0.0018382072
236	0x3da53e66	0.08068542
237	0x3d955aef	0.07292735
238	0x3d82263c	0.06354949
239	0xbba35041	-0.0049839322
240	0x3cce639c	0.025193982
241	0x3d4004b0	0.04687947
242	0xbdb3ede7	-0.08785611
243	0x3d9ad8c6	0.075608775
244	0x3da4edd8	0.080531776
245	0x3d7edbe1	0.06222141
246	0x3dab93b7	0.08377784
247	0x3c8b47b2	0.01700196
248	0x3d98bb91	0.074576505
249	0x3d216bfe	0.03940963
250	0xbdaf28f3	-0.08552732
251	0x3db20a52	0.08693375
252	0x3c00dcf3	0.007865178
253	0x3d33b85c	0.04387699
254	0x3ce6cb7b	0.028173199
255	0x3ba29509	0.004961614

fc.bias f4 [18]
0	0x3db9b294	0.09067264
1	0x3cbccfda	0.02304833
2	0xbd968eff	-0.07351493
3	0xbc9c0f9a	-0.019050408
4	0x3d51b973	0.05120225
5	0x3d74beda	0.059752323
6	0x3d47a720	0.048743367
7	0x3c1d418b	0.009598146
8	0x3c582301	0.013191939
9	0xbd4f6436	-0.050632678
10	0x3d9948ca	0.074845865
11	0xbd0cc88d	-0.034370948
12	0xbc386eac	-0.011256855
13	0x3d289609	0.04115871
14	0xbb953557	-0.0045534777
15	0x3c5f4abe	0.01362866
16	0xbda2c819	-0.07948322
17	0xbd8cb39f	-0.068701975
